…
작용하지 않을 수 있습니다. . from tensorflow import keras model = keras.Sequential( [ keras.layers.Dense( 256, activation=&quot;relu&quot;, input_shape=[13] ), keras.layers.Dense(515, activation=&quot;relu&quot;), keras.layers.Dropout(0.3), keras.layers.Dense(50, activation=&quot;relu&quot;), keras.layers.Dropout(0.3), keras.layers.Dense(1, activation=&quot;sigmoid&quot;), ] ) model.summary() . Model: &#34;sequential_5&#34; _________________________________________________________________ Layer (type) Output Shape Param # ================================================================= dense_20 (Dense) (None, 256) 3584 _________________________________________________________________ dense_21 (Dense) (None, 515) 132355 _________________________________________________________________ dropout_10 (Dropout) (None, 515) 0 _________________________________________________________________ dense_22 (Dense) (None, 50) 25800 _________________________________________________________________ dropout_11 (Dropout) (None, 50) 0 _________________________________________________________________ dense_23 (Dense) (None, 1) 51 ================================================================= Total params: 161,790 Trainable params: 161,790 Non-trainable params: 0 _________________________________________________________________ . 활성화 함수로 제일 많이 사용하는 relu와 sigmoid함수를 사용했습니다. . relu함수 : 입력이 양수일 경우 그대로 반환, 음수일경우 0으로 만듭니다. . sigmoid함수 : 1 / (1 + e^z) 함수. 값을 0에서 1 사이로 변환합니다. . 첫번째 구간에 아웃풋 값을 256개 주었는데, 변수값이 13개임으로 모수가 14개입니다.
…
