…
resnet = resnet50(pretrained=False) self.classifier = nn.Linear(1000, 10) def forward(self, x): x = self.resnet(x) x = self.classifier(x) return x . 파이토치 내 nn.Module 클래스를 상속하고 resnet50 을 사용하여 모델을 정의했습니다. . 이때 대회 규칙 상 사전학습이 안되므로 pretrained=False 로 잘 지정해줘야합니다. . model = Model().to(device) print(summary(model, input_size = (1,3,32,32))) . =============================================================================================== Layer (type:depth-idx) Output Shape Param # =============================================================================================== Model -- -- ├─ResNet: 1-1 [1, 1000] -- │ └─Conv2d: 2-1 [1, 64, 16, 16] 9,408 │ └─BatchNorm2d: 2-2 [1, 64, 16, 16] 128 │ └─ReLU: 2-3 [1, 64, 16, 16] -- │ └─MaxPool2d: 2-4 [1, 64, 8, 8] -- │ └─Sequential: 2-5 [1, 256, 8, 8] -- │ │ └─Bottleneck: 3-1 [1, 256, 8, 8] 75,008 │ │ └─Bottleneck: 3-2 [1, 256, 8, 8] 70,400 │ │ └─Bottleneck: 3-3 [1, 256, 8, 8] 70,400 │ └─Sequential: 2-6 [1, 512, 4, 4] -- │ │ └─Bottleneck: 3-4 [1, 512, 4, 4] 379,392 │ │ └─Bottleneck: 3-5 [1, 512, 4, 4] 280,064 │ │ └─Bottleneck: 3-6 [1, 512, 4, 4] 280,064 │ │ └─Bottleneck: 3-7 [1, 512, 4, 4] 280,064 │ └─Sequential: 2-7 [1, 1024, 2, 2] -- │ │ └─Bottleneck: 3-8 [1, 1024, 2, 2] 1,512,448 │ │ └─Bottleneck: 3-9 [1, 1024, 2, 2] 1,117,184 │ │ └─Bottleneck: 3-10 [1, 1024, 2, 2] 1,117,184 │ │ └─Bottleneck: 3-11 [1, 1024, 2, 2] 1,117,184 │ │ └─Bottleneck: 3-12 [1, 1024, 2, 2] 1,117,184 │ │ └─Bottleneck: 3-13 [1, 1024, 2, 2] 1,117,184 │ └─Sequential: 2-8 [1, 2048, 1, 1] -- │ │ └─Bottleneck: 3-14 [1, 2048, 1, 1] 6,039,552 │ │ └─Bottleneck: 3-15 [1, 2048, 1, 1] 4,462,592 │ │ └─Bottleneck: 3-16 [1, 2048, 1, 1] 4,462,592 │ └─AdaptiveAvgPool2d: 2-9 [1, 2048, 1, 1] -- │ └─Linear: 2-10 [1, 1000] 2,049,000 ├─Linear: 1-2 [1, 10] 10,010 =============================================================================================== Total params: 25,567,042 Trainable params: 25,567,042 Non-trainable params: 0 Total mult-adds (M): 85.52 =============================================================================================== Input size (MB): 0.01 Forward/backward pass size (MB): 3.64 Params size (MB): 102.27 Estimated Total S
…
. . Generator(&#49373;&#49457;&#51088;), Discriminator(&#44396;&#48324;&#51088;) &#47784;&#45944; &#49373;&#49457; . inputs = keras.Input(shape=(100,)) x = inputs x = layers.Dense(256)(x) x = layers.LeakyReLU()(x) x = layers.Dense(28*28, activation = &#39;tanh&#39;)(x) outputs = layers.Reshape((28, 28))(x) G = keras.Model(inputs, outputs) G.summary() . Model: &#34;model_5&#34; _________________________________________________________________ Layer (type) Output Shape Param # ================================================================= input_6 (InputLayer) [(None, 100)] 0 dense_10 (Dense) (None, 256) 25856 leaky_re_lu_5 (LeakyReLU) (None, 256) 0 dense_11 (Dense) (None, 784) 201488 reshape_3 (Reshape) (None, 28, 28) 0 ================================================================= Total params: 227,344 Trainable params: 227,344 Non-trainable params: 0 _________________________________________________________________ . 100차원의 값을 입력받아 이미지 데이터와 같은 형태인 28 * 28 형태로 출력하는 모델을 만들었습니다. . 더 자세히 살펴보면 100개의 입력에서 256개의 특성으로, 또 다음 층을 지나면 784개의 특성을 만들어내는 모델입니다. . 이 모델은 Generator(생성자) 모델로, 가짜 이미지를 만드는 모델입니다. . inputs = keras.Input(shape=(28, 28)) x = layers.Flatten()(inputs) x = layers.Dense(256)(x) x = layers.LeakyReLU()(x) x = layers.Dropout(0.3)(x) outputs = layers.Dense(1)(x) D = keras.Model(inputs, outputs) D.summary() . Model: &#34;model_6&#34; _________________________________________________________________ Layer (type) Output Shape Param # ================================================================= input_7 (InputLayer) [(None, 28, 28)] 0 flatten_2 (Flatten) (None, 784) 0 dense_12 (Dense) (None, 256) 200960 leaky_re_lu_6 (LeakyReLU) (None, 256) 0 dropout_2 (Dropout) (None, 256) 0 dense_13 (Dense) (None, 1) 257 ================================================================= Total params: 201,217 Trainable params: 201,217 Non-trainable params: 0 _________________________________________________________________ . 28 * 28 형태의 이미지 데이터를 입력받아 256 차원으로 바꾼뒤, 최종 1개의 값을 내보내는 모델입니다. . 이미지를 입력받아 실제 이미지인지, 생성자에서 만든 이미지인지 구분하는 Discriminator(구별자) 입니다. . test_noise = tf.random.normal([1, 100]) fake_image_test = G(tes
…
작용하지 않을 수 있습니다. . from tensorflow import keras model = keras.Sequential( [ keras.layers.Dense( 256, activation=&quot;relu&quot;, input_shape=[13] ), keras.layers.Dense(515, activation=&quot;relu&quot;), keras.layers.Dropout(0.3), keras.layers.Dense(50, activation=&quot;relu&quot;), keras.layers.Dropout(0.3), keras.layers.Dense(1, activation=&quot;sigmoid&quot;), ] ) model.summary() . Model: &#34;sequential_5&#34; _________________________________________________________________ Layer (type) Output Shape Param # ================================================================= dense_20 (Dense) (None, 256) 3584 _________________________________________________________________ dense_21 (Dense) (None, 515) 132355 _________________________________________________________________ dropout_10 (Dropout) (None, 515) 0 _________________________________________________________________ dense_22 (Dense) (None, 50) 25800 _________________________________________________________________ dropout_11 (Dropout) (None, 50) 0 _________________________________________________________________ dense_23 (Dense) (None, 1) 51 ================================================================= Total params: 161,790 Trainable params: 161,790 Non-trainable params: 0 _________________________________________________________________ . 활성화 함수로 제일 많이 사용하는 relu와 sigmoid함수를 사용했습니다. . relu함수 : 입력이 양수일 경우 그대로 반환, 음수일경우 0으로 만듭니다. . sigmoid함수 : 1 / (1 + e^z) 함수. 값을 0에서 1 사이로 변환합니다. . 첫번째 구간에 아웃풋 값을 256개 주었는데, 변수값이 13개임으로 모수가 14개입니다.
…
